models/05_going_modular_script_mode_tinyvgg_model.pth (torch, 35783 bytes, 10 tensors)

conv_block_1.0.weight f4 [10, 3, 3, 3]
-0.18542449 0.045715317 -0.012366879 0.011099612 0.14805849 0.041422024 -0.08974595 0.07690879
-0.09979998 -0.048211616 -0.13545823 -0.11469765 0.0690208 0.13861491 0.1679214 0.16792932
-0.03296027 -0.031195287 0.12872194 0.1030207 -0.09937589 0.12198866 -0.1484852 -0.06686123
0.12477815 0.15601805 0.049890887 -0.13442491 -0.07342731 0.17900999 0.04271967 0.14503306
-0.032590102 -0.024160597 0.026443265 0.07848954 -0.0019723251 -0.1823555 -0.101431794 0.15075542
0.077704564 0.07828693 0.11100271 0.13660525 -0.08006221 0.119453825 -0.06079094 -0.011439679
-0.047961053 0.014251258 -0.17337316 -0.07483582 -0.122645415 0.034541223 0.14022924 -0.105741404
0.04185826 0.13317397 0.19493826 -0.0067978385 0.1331817 0.06450954 -0.1475517 0.16099697
-0.09065252 -0.15798005 0.07738142 -0.0787139 0.043068405 0.0579031 -0.15204273 -0.14430109
0.13302602 0.14390911 0.1160336 -0.17239466 0.07036225 -0.021883817 -0.064714916 -0.022345938
-0.16007684 -0.011113254 -0.09357926 -0.06498502 -0.16175213 0.041834973 0.1251393 -0.17684026
-0.0585827 0.09217692 0.014989104 0.15164149 -0.027975308 -0.040513124 -0.008290484 0.15958335
0.030348005 0.17072636 -0.07516769 0.078627475 0.15467656 -0.18216021 -0.059968226 -0.08817164
0.16292426 0.09259437 -0.07077647 0.08081904 -0.06432887 0.15829551 0.14902636 0.083340935
-0.15845399 -0.20042667 -0.18569368 0.0892575 0.13232157 0.10477216 0.16362277 0.15933125
0.004660211 -0.1653948 0.12205791 -0.18526454 -0.13073903 -0.12396292 -0.13533857 0.029833931
-0.03224737 0.117811054 -0.041627478 -0.03062797 0.045356333 -0.1952027 0.13731042 -0.05399778
0.0027405184 0.08576148 0.04706275 -0.088418886 -0.19850405 -0.09101981 -0.093162484 -0.040478136
-0.15608309 -0.019406427 -0.080759466 -0.026715446 0.107907936 -0.18481171 -0.13346122 -0.03454014
-0.08204518 0.14089009 0.05229399 0.0966857 0.11959676 -0.17923687 -0.19999848 0.011537304
0.15779543 0.1486887 0.15046369 0.019609675 -0.12459485 0.118374534 -0.05032054 -0.04013419
-0.07920482 -0.002386872 0.14298822 0.17990534 0.14441146 -0.11287956 -0.033088867 0.06432174
0.12768476 -0.09098518 0.11805309 0.14011297 0.1836266 -0.08752281 -0.09288882 -0.17303088
0.13447428 0.08695022 -0.0922776 -0.07733924 0.15686458 0.17668071 0.033730093 -0.057019897
-0.1435734 -0.05629151 0.19047472 -0.06248496 0.13530196 -0.02629927 -0.10849972 -0.16737011
0.055458218 -0.026852699 -0.050213434 -0.12695524 -0.13089854 0.065931775 -0.061418623 -0.17184827
-0.10526393 0.0038237474 -0.1823493 0.13481888 -0.16906346 0.09256195 0.11774967 -0.11603766
0.008676063 0.07901278 0.1614855 -0.045101475 -0.073896416 0.1903945 0.115703024 0.07988903
0.16277608 -0.09261405 0.09464271 0.00041890892 -0.14856924 -0.03480185 0.023710623 0.113664284
0.10066723 0.11474259 0.12600204 0.19083613 0.14534044 0.0505244 0.15138584 0.1382158
0.029302485 -0.124171965 -0.13370386 0.10260068 0.077702515 -0.101277485 0.015256588 0.16990717
-0.1419232 -0.14488195 -0.15507667 -0.08000797 -0.021070482 0.18773212 -0.101943605 -0.10192965
00000000: ebdf 3dbe fc3f 3b3d 739e 4abc 26db 353c
00000010: a59c 173e 24aa 293d bacc b7bd 5b82 9d3d
00000020: ef63 ccbd 8b79 45bd 90b5 0abe 9ae6 eabd
00000030: c75a 8d3d 11f1 0d3e 96f3 2b3e aaf5 2b3e
00000040: 5901 07bd 428d ffbc afcf 033e 84fc d23d
00000050: 9685 cbbd 31d5 f93d 810c 18be 8aee 88bd
00000060: b08b ff3d 32c3 1f3e 635a 4c3d afa6 09be
00000070: 0f61 96bd 654e 373e d2fa 2e3d 8c83 143e
00000080: 337d 05bd 72ec c5bc 8c9f d83c 20bf a03d
00000090: 2042 01bb 66bb 3abe 79bb cfbd a15f 1a3e
000000a0: 9223 9f3d e654 a03d 6455 e33d 3fe2 0b3e
000000b0: a8f7 a3bd 35a4 f43d ecff 78bd 7e6d 3bbc
000000c0: cf72 44bd 1c7e 693c bc88 31be 8643 99bd
000000d0: 852d fbbd 197b 0d3d 4198 0f3e f38e d8bd
000000e0: 9173 2b3d c25e 083e e59d 473e 67c0 debb
000000f0: c960 083e 941d 843d cb17 17be 64dc 243e
00000100: 07a8 b9bd 86c5 21be 267a 9e3d c134 a1bd
00000110: 7f68 303d cd2b 6d3d 17b1 1bbe aac3 13be
00000120: f937 083e e95c 133e 06a3 ed3d 3a88 30be
00000130: 151a 903d b145 b3bc 4189 84bd d40e b7bc
00000140: 2feb 23be 5e14 36bc 7ca6 bfbd de16 85bd
00000150: 5aa2 25be 265b 2b3d 8424 003e 9d15 35be
00000160: 6af4 6fbd 41c7 bc3d dc94 753c e847 1b3e
00000170: 792c e5bc 17f1 25bd cfd4 07bc d169 233e
00000180: 619c f83c e4d2 2e3e 85f1 99bd 7107 a13d
00000190: 8863 1e3e 3588 3abe 3ea1 75bd 5593 b4bd
000001a0: 9ed5 263e 1ea2 bd3d 41f3 90bd 7484 a53d
000001b0: dbbe 83bd 3818 223e 5e9a 183e a7ae aa3d
000001c0: c341 22be a63c 4dbe 7c26 3ebe a3cc b63d
000001d0: 4e7f 073e c992 d63d ba8c 273e bb27 233e
000001e0: afb4 983b 415d 29be 7ff9 f93d fdb5 3dbe
000001f0: 74e0 05be 45e0 fdbd 3296 0abe 4a66 f43c
00000200: d115 04bd ec46 f13d 9381 2abd 82e7 fabc
00000210: 90c7 393d 37e3 47be 1a9b 0c3e c72c 5dbd
00000220: 459a 333b b7a3 af3d dfc4 403d f614 b5bd
00000230: a544 4bbe 9868 babd f9cb bebd 67cc 25bd
00000240: 3fd4 1fbe 3afa 9ebc 3865 a5bd 5ada dabc
00000250: d6fe dc3d 483f 3dbe 0faa 08be f679 0dbd
00000260: 4e07 a8bd 7e45 103e 3932 563d 2703 c63d
00000270: 25ef f43d df89 37be 67cc 4cbe f606 3d3c
00000280: 2095 213e da41 183e 2713 1a3e 78a4 a03c
00000290: 962b ffbd 596e f23d e91c 4ebd c063 24bd
000002a0: 2336 a2bd 116d 1cbb 816b 123e 1b39 383e
000002b0: 99e0 133e 662d e7bd 3188 07bd 1ebb 833d
000002c0: cbbf 023e 7056 babd d2c5 f13d c679 0f3e
000002d0: 9d08 3c3e 293f b3bd 7e3c bebd 022f 31be
000002e0: a0b3 093e f512 b23d 0afc bcbd 0964 9ebd
000002f0: 1ca1 203e caeb 343e 9128 0a3d b28d 69bd
00000300: e804 13be ed91 66bd ce0b 433e 3bf0 7fbd
00000310: 998c 0a3e 9171 d7bc 1a35 debd 1263 2bbe
00000320: 2828 633d 31fa dbbc 9aac 4dbd 8e00 02be
00000330: 440a 06be 3d07 873d 1892 7bbd fef8 2fbe
00000340: 9e94 d7bd d697 7a3b c6b9 3abe f60d 0a3e
00000350: f91e 2dbe 1f91 bd3d bd26 f13d 27a5 edbd
00000360: 0c26 0e3c 74d1 a13d 745c 253e 53bc 38bd
00000370: 0157 97bd c7f6 423e b5f5 ec3d dc9c a33d
00000380: c6ae 263e 6fac bdbd 0ad4 c13d 01a1 db39
00000390: 8922 18be 628c 0ebd c83c c23c d2c8 e83d
000003a0: 9f2a ce3d 2afe ea3d ae06 013e 8c6a 433e
000003b0: 20d4 143e acf2 4e3d e404 1b3e 7188 0d3e
000003c0: c40b f03c df4d febd aae9 08be 4e20 d23d
000003d0: 7f22 9f3d 926a cfbd c5f6 793c 25fc 2d3e
000003e0: 5154 11be ef5b 14be 6bcc 1ebe 38db a3bd
000003f0: 019c acbc d93c 403e cfc7 d0bd 7ec0 d0bd

conv_block_1.0.bias f4 [10]
0.10391486 -0.068393745 -0.13047838 -0.023900505 -0.122996606 0.04757455 0.1345796 0.05640192
0.115318835 -0.12605534
00000000: 50d1 d43d 0512 8cbd 209c 05be feca c3bc
00000010: a5e5 fbbd 88dd 423d 3ccf 093e b305 673d
00000020: 482c ec3d a714 01be

conv_block_1.2.weight f4 [10, 10, 3, 3]
0.019148784 -0.016454915 0.026121013 -0.085025765 0.014887954 -0.049917992 0.07933613 -0.036362894
-0.04698658 0.0745075 0.02027644 0.047367793 0.026289444 -0.03276883 -0.05095917 -0.0048794015
-0.06429407 -0.0077391975 -0.05994213 -0.0035881717 -0.0711482 -0.015084913 -0.0401536 0.036790248
-0.0062428922 -0.019280324 -0.045427613 0.05634155 -0.014600164 -0.046970177 -0.052558012 0.11866332
0.01049262 0.105311535 0.021175653 0.10147324 -0.057678394 0.034444593 0.017698208 0.02747189
-0.071116164 0.09320119 0.024277253 0.007121691 0.110854104 0.09486577 -0.025085596 0.033164058
0.02194115 0.015998727 -0.08817552 -0.10378339 -0.083980404 -0.07741681 0.08557731 -0.00031175785
-0.04908852 -0.01641209 -0.041190393 0.06317945 0.07351262 0.09641718 -0.037246604 0.025439825
0.06652447 -0.018946873 0.025149014 0.06390497 -0.10330543 -0.055667683 0.037527975 -0.0142045235
0.060344696 -0.08691606 0.10688272 0.106002375 0.035733845 0.034550425 0.0142247295 0.04014685
0.09831571 0.09673417 0.011342764 -0.024416259 -0.038596883 0.063091 -0.06872869 -0.036268376
-0.015673019 -0.02272752 0.025795469 0.07745312 0.019189535 -0.08023142 -0.070293285 -0.015364017
-0.029156704 -0.040289097 -0.047224335 -0.09295143 0.02136299 0.09985064 -0.08809635 0.08139375
-0.016575297 -0.04546062 -0.015287105 -0.08670085 0.03721593 -0.010371991 0.009713915 0.04525058
0.09695975 0.0020089976 0.055731785 -0.04456799 -0.024498666 0.054250933 -0.08420266 0.0878237
0.015121701 -0.053760692 0.00029576034 0.074289076 -0.012954016 -0.00083777774 -0.08897214 -0.05855571
-0.075215764 -0.076713555 0.048957147 0.033184744 -0.07897234 0.01338138 -0.05512056 -0.07024018
-0.036419928 0.024388323 -0.050944228 0.07912063 0.03649728 0.04614245 0.03158642 -0.048894696
-0.10632874 0.062380195 -0.055532403 0.05680304 0.042503025 -0.07655102 0.034882404 -0.045841563
0.09246758 0.044339046 -0.09190883 0.037821766 0.042365156 -0.08294458 0.039607044 0.04161004
0.06004321 -0.06243318 -0.050611507 0.042481743 -0.0019377985 0.06915237 -0.031679574 0.025503285
-0.043866728 -0.03623533 -0.09861032 0.07706591 0.029585158 0.026607078 0.02825052 0.02660734
-0.035113152 0.06900832 0.09554455 0.047930982 0.0010785998 0.078799866 -0.07271981 0.084246166
-0.053197667 0.057952713 -0.0657948 0.06115546 -0.02488362 -0.009722654 0.06986604 -0.07204209
0.0037114997 -0.021486172 -0.0387031 -0.0238627 0.09045643 0.03444715 0.0872851 -0.0610446
0.112792954 -0.071164556 0.10018453 -0.07585669 -0.025737237 -0.025862286 0.060104813 -0.05382623
0.04089058 -0.057309553 -0.048245046 -0.014886725 0.10071933 -0.047982182 -0.02285489 -0.038560737
-0.0033256002 0.106801644 -0.06337741 -0.003200072 -0.07620947 -0.061643705 -0.10034225 0.06356239
0.08797777 0.030488115 -0.04624417 -0.020769019 0.02460953 -0.066048324 -0.09044268 0.09407913
0.0043901023 -0.011555772 0.052741047 -0.037775166 -0.08495393 0.109616764 0.08667889 -0.01798777
-0.042507794 -0.071602814 -0.0021849915 0.008068247 0.019829728 0.032009993 -0.009052759 -0.07034252
0.07248259 -0.033754103 -0.07308805 -0.0035377105 0.06371281 -0.076444104 0.091499716 -0.01762835
00000000: e9dd 9c3c 75cc 86bc bcfb d53c fd21 aebd
00000010: 9bec 733c cf76 4cbd fb7a a23d 42f1 14bd
00000020: 0075 40bd 6397 983d c71a a63c bb04 423d
00000030: f65c d73c 9c38 06bd 90ba 50bd 63e3 9fbb
00000040: 9cac 83bd 1899 fdbb e185 75bd 8827 6bbb
00000050: 26b6 91bd b626 77bc 1a78 24bd 5fb1 163d
00000060: 2d91 ccbb c5f1 9dbc 4e12 3abd 66c6 663d
00000070: 8735 6fbc cd63 40bd 1247 57bd c105 f33d
00000080: 3de9 2b3c 93ad d73d 9078 ad3c 34d1 cf3d
00000090: 2e40 6cbd c615 0d3d d5fb 903c bb0c e13c
000000a0: 5aa5 91bd 44e0 be3d 17e1 c63c 135d e93b
000000b0: 7a07 e33d fc48 c23d 4f80 cdbc 09d7 073d
000000c0: edbd b33c c30f 833c 5e95 b4bd 638c d4bd
000000d0: ebfd abbd b48c 9ebd 2843 af3d 6e73 a3b9
000000e0: 0b11 49bd a672 86bc 42b7 28bd 3a64 813d
000000f0: c98d 963d 5f76 c53d e58f 18bd 2e67 d03c
00000100: fb3d 883d 7936 9bbc 4e05 ce3c 9ce0 823d
00000110: cc91 d3bd cc03 64bd efb6 193d 17ba 68bc
00000120: 002c 773d 0c01 b2bd 54e5 da3d c617 d93d
00000130: a75d 123d bf84 0d3d d70e 693c 0671 243d
00000140: bf59 c93d 911c c63d 00d7 393c 9b04 c8bc
00000150: c417 1ebd db35 813d a1c1 8cbd 268e 14bd
00000160: b464 80bc 102f babc 0551 d33c be9f 9e3d
00000170: 5f33 9d3c 5f50 a4bd edf5 8fbd 5cb9 7bbc
00000180: 0ada eebc 2e06 25bd 4e6e 41bd 525d bebd
00000190: 7001 af3c 7e7e cc3d dc6b b4bd c4b1 a63d
000001a0: ebc8 87bc ea34 3abd c476 7abc 3790 b1bd
000001b0: bb6f 183d 49ef 29bc 1d27 1f3c ac58 393d
000001c0: d592 c63d 63a9 033b 0347 643d ed8c 36bd
000001d0: 6db1 c8bc 3a36 5e3d 7272 acbd e9dc b33d
000001e0: 03c1 773c 2c34 5cbd 4810 9b39 df24 983d
000001f0: 153d 54bc 509e 5bba 0637 b6bd 1dd8 6fbd
00000200: b90a 9abd ff1b 9dbd 4a87 483d baec 073d
00000210: 40bc a1bd 933d 5b3c 19c6 61bd 15da 8fbd
00000220: 102d 15bd 05ca c73c e5aa 50bd ff09 a23d
00000230: 2c7e 153d deff 3c3d c360 013d ce45 48bd
00000240: e2c2 d9bd 6082 7f3d f275 63bd 4eaa 683d
00000250: a717 2e3d c8c6 9cbd dae0 0e3d 5dc4 3bbd
00000260: a55f bd3d dc9c 353d b23a bcbd ffea 1a3d
00000270: 1687 2d3d d9de a9bd ff3a 223d 4a6f 2a3d
00000280: deef 753d efb9 7fbd 034e 4fbd 5601 2e3d
00000290: bafd fdba c29f 8d3d 71c2 01bd 44ec d03c
000002a0: 99ad 33bd 7f6b 14bd 35f4 c9bd bbd4 9d3d
000002b0: 935c f23c 16f7 d93c a26d e73c a3f7 d93c
000002c0: cfd2 0fbd 3c54 8d3d dcac c33d 4753 443d
000002d0: ce5f 8d3a d361 a13d 20ee 94bd 4189 ac3d
000002e0: cce5 59bd d35f 6d3d 6dbf 86bd 267e 7a3d
000002f0: bcd8 cbbc c44b 1fbc ed15 8f3d ce8a 93bd
00000300: a23c 733b c503 b0bc 2487 1ebd b67b c3bc
00000310: 3941 b93d 7418 0d3d 88c2 b23d e709 7abd
00000320: feff e63d b9be 91bd 8c2d cd3d c15a 9bbd
00000330: e6d6 d2bc 25dd d3bc 7730 763d e578 5cbd
00000340: e17c 273d 6cbd 6abd 999c 45bd 73e7 73bc
00000350: f045 ce3d f788 44bd 2e3a bbbc ddf1 1dbd
00000360: 50f2 59bb d2ba da3d 04cc 81bd 4db8 51bb
00000370: b613 9cbd 1c7e 7cbd 3d80 cdbd 002d 823d
00000380: b02d b43d 36c2 f93c 876a 3dbd ca23 aabc
00000390: ed99 c93c 5844 87bd 033a b9bd 8fac c03d
000003a0: d9da 8f3b 6c54 3dbc ff06 583d 22ba 1abd
000003b0: 53fc adbd c17e e03d b484 b13d 165b 93bc
000003c0: a71c 2ebd 7fa4 92bd 1332 0fbb ae30 043c
000003d0: f471 a23c e91c 033d 0652 14bc bd0f 90bd
000003e0: c171 943d be41 0abd 30af 95bd efd8 67bb
000003f0: dd7b 823d ba8e 9cbd 3464 bb3d 5469 90bc

conv_block_1.2.bias f4 [10]
-0.01680339 -0.08520217 0.0018809233 0.024302328 -0.09844037 -0.0021201165 0.079914294 -0.053980313
-0.011461762 -0.036810625
00000000: 43a7 89bc 7a7e aebd 5089 f63a ad15 c73c
00000010: 1b9b c9bd a7f1 0abb 1baa a33d 761a 5dbd
00000020: 1dca 3bbc bdc6 16bd

conv_block_2.0.weight f4 [10, 10, 3, 3]
-0.090960175 -0.0014372616 -0.0025233189 -0.013901225 -0.07466719 -0.08828942 -0.099163294 -0.081771664
0.08995097 0.021094762 -0.06649446 0.08925876 0.07899366 0.06326948 0.047850538 -0.06954886
0.083513275 -0.05717187 0.091318026 -0.015414786 -0.098748654 0.06563869 -0.0061092144 -0.102516815
0.10332879 -0.040592197 0.057950895 -0.0006515258 0.083009906 0.011988666 0.09028099 0.04018784
-0.016506797 -0.0064984593 -0.008989497 0.06763519 -0.076704 -0.06849196 0.027283521 0.08948434
0.06237373 -0.036603644 -0.06017743 0.088919334 -0.102402784 0.08757153 0.1005596 -0.050043978
0.049015798 -0.06080311 0.045944046 -0.08040595 0.040567685 0.09223253 -0.07458569 -0.017774304
0.06370128 -0.015999582 0.05231923 -0.0060613854 -0.057541188 0.035329062 -0.07486215 -0.04362883
0.038774464 -0.07628319 -0.010694316 0.07961692 -0.026463281 0.062060937 -0.07378471 -0.015068009
0.08210393 0.05500812 0.07130739 0.009242134 -0.02228171 -0.019347183 0.010178226 0.0734453
0.00718609 0.03355469 -0.08929377 0.030307462 -9.50763e-06 0.027758494 0.071784884 -0.03229413
0.06919255 -0.019069249 -0.043402497 -0.028385343 0.017741123 -0.04818354 -0.045036543 -0.006776786
-0.0076886266 -0.043334484 0.0333036 -0.03594821 -0.0706965 -0.10174297 0.059540316 0.00996906
-0.09814584 -0.08146965 0.018690541 -0.08156474 -0.055090614 0.099057145 -0.06254484 -0.11649788
0.091853715 0.043891657 -0.0449826 -0.012009165 -0.0027336364 -0.0932646 -0.0040151174 0.05123602
-0.00025933608 -0.014488104 0.07529588 -0.106594674 0.051775232 -0.03411541 0.0013615149 -0.056118067
-0.024317866 0.0256607 -0.035592973 0.10495778 -0.07146163 0.0832925 0.02026584 -0.08822202
0.075869426 0.10380791 0.008441843 0.06795513 0.0017305568 0.07415158 -0.041624516 0.03206632
0.003618943 0.036694072 -0.10411096 -0.007370235 -0.058789827 0.034152456 -0.075070806 -0.08202711
-0.046234347 -0.026841333 0.10238445 -0.04429854 -0.06263345 0.008085324 -0.02287095 0.016836073
0.036897182 -0.053872284 0.03458654 -0.004695565 -0.076078765 -0.035831712 -0.095161445 0.064596094
-0.013616825 0.09714772 -0.07635765 0.070389025 -0.020035211 0.008165098 -0.082943 0.03242502
0.021119816 0.094380155 0.043955456 -0.085134104 0.03262553 -0.01536074 0.07895552 -0.08952023
-0.010279512 -0.111319974 0.07676739 0.0064380732 0.0073741972 0.002619421 0.09126766 0.060602337
-0.05545933 0.06053408 0.066683136 -0.0051135994 -0.021273585 -0.073790014 0.08800473 -0.10774174
0.06419288 -0.06634299 -0.05337308 0.012905521 -0.10945652 -0.059108227 -0.10776524 -0.11449549
0.08645402 -0.091235645 0.03982197 0.08245644 0.008565027 -0.085144185 -0.025457747 -0.08586476
-0.06332162 -0.03421109 0.025163583 0.08672339 0.07784809 0.06644529 -0.0045201587 0.052764963
-0.047054917 0.007077427 -0.08673614 -0.08105036 -0.032746643 -0.042000484 -0.038655933 0.04710692
0.08794736 0.08467317 -0.08284823 0.07843666 -0.0010663632 0.03947208 -0.11971171 0.07992616
0.037279304 0.03146963 -0.084082834 0.024999788 0.036281236 0.0394211 0.08998005 -0.08236172
0.019135872 -0.069846965 -0.10820817 -0.021840986 -0.015799426 0.05948353 -0.058580548 -0.06863394
00000000: 5449 babd 7f62 bcba 445e 25bb f7c1 63bc
00000010: 1deb 98bd 15d1 b4bd 2016 cbbd e777 a7bd
00000020: 3738 b83d ecce ac3c 3f2e 88bd 4ccd b63d
00000030: 6ec7 a13d 6e93 813d edfe 433d a26f 8ebd
00000040: 0209 ab3d 0d2d 6abd f204 bb3d 4c8e 7cbc
00000050: bc3c cabd 946d 863d ce2f c8bb 56f4 d1bd
00000060: 0b9e d33d 0144 26bd eb5d 6d3d 28cb 2aba
00000070: 1901 aa3d 1c6c 443c 3de5 b83d 019c 243d
00000080: 4339 87bc 07f1 d4bb af48 13bc 5284 8a3d
00000090: fd16 9dbd 8345 8cbd b181 df3c 9143 b73d
000000a0: 997b 7f3d b4ed 15bd 9c7c 76bd 571b b63d
000000b0: 8db8 d1bd b458 b33d 31f2 cd3d eafa 4cbd
000000c0: cac4 483d af0c 79bd d32f 3c3d e0ab a4bd
000000d0: 4d2a 263d 69e4 bc3d 62c0 98bd 6b9b 91bc
000000e0: d175 823d 8e11 83bc b04c 563d 969e c6bb
000000f0: 4fb0 6bbd 35b5 103d 5451 99bd 25b4 32bd
00000100: f9d1 1e3d 5c3a 9cbd 3637 2fbc 320e a33d
00000110: 86c9 d8bc 9c33 7e3d 701c 97bd cfdf 76bc
00000120: 1b26 a83d 3250 613d 9c09 923d 526c 173c
00000130: 2288 b6bc fc7d 9ebc 93c2 263c 7d6a 963d
00000140: 4b79 eb3b a570 093d a7df b6bd 5b47 f83c
00000150: f682 1fb7 c865 e33c f403 933d da46 04bd
00000160: d3b4 8d3d 1d37 9cbc d1c6 31bd 6188 e8bc
00000170: d555 913c 1b5c 45bd 3d78 38bd cd0f debb
00000180: e0f0 fbbb 807f 31bd 5b69 083d 6e3e 13bd
00000190: 54c9 90bd 9e5e d0bd 8ce0 733d 4555 233c
000001a0: b000 c9bd 8fd9 a6bd e81c 993c 6a0b a7bd
000001b0: b2a6 61bd 79de ca3d 8217 80bd 7196 eebd
000001c0: cd1d bc3d bdc7 333d ad3f 38bd 17c2 44bc
000001d0: cf26 33bb 8301 bfbd 3f91 83bb dcdc 513d
000001e0: 80f7 87b9 835f 6dbc ba34 9a3d 4f4e dabd
000001f0: 4412 543d 9abc 0bbd dc74 b23a 0fdc 65bd
00000200: 4336 c7bc 6336 d23c f0c9 11bd 1bf4 d63d
00000210: 7a5a 92bd 4295 aa3d 8c04 a63c bfad b4bd
00000220: 6e61 9b3d 3e99 d43d a84f 0a3c 0f2c 8b3d
00000230: dad3 e23a c9dc 973d 787e 2abd f957 033d
00000240: ca2b 6d3b 864c 163d 2138 d5bd 0382 f1bb
00000250: 9acd 70bd 72e3 0b3d b9be 99bd d4fd a7bd
00000260: 3a60 3dbd 5be2 dbbc f0ae d13d 6372 35bd
00000270: f745 80bd 4f78 043c dc5b bbbc ceeb 893c
00000280: 8021 173d 2fa9 5cbd 9eaa 0d3d 41dd 99bb
00000290: 2fcf 9bbd 46c4 12bd 01e4 c2bd f54a 843d
000002a0: 1b19 5fbc 62f5 c63d 6661 9cbd 1f28 903d
000002b0: e220 a4bc e7c6 053c 05de a9bd 19d0 043d
000002c0: 7703 ad3c 624a c13d a30a 343d ca5a aebd
000002d0: 59a2 053d 9dab 7bbc 6fb3 a13d 6256 b7bd
000002e0: 666b 28bc bafb e3bd 3938 9d3d 79f6 d23b
000002f0: 40a3 f13b 98aa 2b3b 8aea ba3d 283a 783d
00000300: 5329 63bd 95f2 773d 2b91 883d fb8f a7bb
00000310: f145 aebc 381f 97bd d33b b43d b4a7 dcbd
00000320: 8f77 833d d5de 87bd bb9d 5abd ae71 533c
00000330: bd2a e0bd 781b 72bd 06b4 dcbd 9d7c eabd
00000340: ce0e b13d c1d9 babd 5d1c 233d ecde a83d
00000350: 5454 0c3c 1360 aebd c48c d0bc ddd9 afbd
00000360: c4ae 81bd ee20 0cbd dc23 ce3c 089c b13d
00000370: d26e 9f3d 7814 883d d71d 94bb 1320 583d
00000380: a8bc 40bd c3e9 e73b b8a2 b1bd bbfd a5bd
00000390: 5821 06bd b308 2cbd af55 1ebd 30f3 403d
000003a0: bf1d b43d 2069 ad3d 55ac a9bd 66a3 a03d
000003b0: 36c5 8bba 7aad 213d 6a2b f5bd 54b0 a33d
000003c0: 2fb2 183d 4ce6 003d 9f33 acbd 5bcc cc3c
000003d0: a29b 143d 0578 213d 7647 b83d 43ad a8bd
000003e0: d5c2 9c3c ed0b 8fbd 3f9c ddbd deeb b2bc
000003f0: cc6d 81bc 01a5 733d 28f2 6fbd f38f 8cbd

conv_block_2.0.bias f4 [10]
-0.04611572 0.023617154 0.018247405 -0.008995462 0.060964257 -0.08750211 0.0140489135 0.10390085
-0.10371308 -0.0457203
00000000: d6e3 3cbd c378 c13c 957b 953c b461 13bc
00000010: a8b5 793d 4e34 b3bd 6a2d 663c f8c9 d43d
00000020: 8667 d4bd 3645 3bbd

conv_block_2.2.weight f4 [10, 10, 3, 3]
0.045870185 -0.080374286 0.03817407 0.049981955 -0.031692524 0.044141036 -0.05742981 0.05860492
-0.06022618 0.06510291 -0.022821788 0.038072437 -0.09833805 0.035582133 0.015475805 0.053633466
-0.03620254 -0.012171512 -0.013704308 -0.0780078 -0.034276623 0.081491016 0.014224594 -0.08826148
0.020619286 0.0013881398 -0.08099144 -0.09220182 0.004157345 -0.06923116 -0.06296227 3.920518e-06
0.10239982 0.042778645 0.068573564 -0.018993577 -0.027608313 0.07931376 -0.04200326 -0.0706763
-0.06975019 0.09043069 -0.086372375 0.009567547 0.0042244587 0.03661436 0.10002746 0.024953531
-0.031894118 0.0613166 -0.06330523 -0.021538496 -0.002900467 -0.03633992 0.08634988 -0.023215272
-0.054073468 0.019981522 0.020659484 -0.08344967 0.05060851 -0.029832678 0.0031078272 0.047657665
-0.06238646 -0.08321214 -0.0997777 -0.060017776 -0.07732103 -0.03493683 -0.001835104 -0.007798224
-0.03433812 0.048893508 0.03880119 0.09458455 0.091076575 -0.016516728 0.082830966 0.016875882
0.033329453 -0.07577131 0.014192212 -0.03574527 -0.026474064 0.053949933 -0.02767299 -0.062993236
0.06591652 -0.009078651 0.048434027 -0.10653831 0.083328225 0.07870046 -0.048462477 -0.044213284
0.08853292 -0.105208226 -0.060838107 -0.10193928 0.025992729 0.06767868 0.005588437 0.03262374
-0.090086125 -0.0036920486 -0.04449757 -0.09077949 0.050040122 0.023194442 -0.045186307 -0.053530473
0.033854917 -0.036644652 0.08842128 -0.045107383 0.08752291 0.0307527 -0.016754882 0.07566168
0.02152213 0.0723239 -0.019946387 -0.0061574243 -0.0013839689 0.029271562 -0.006750323 -0.10516122
-0.031155886 -0.10262537 -0.027659893 0.03196522 0.03439932 -0.044139482 -0.042099804 0.010035688
0.033754125 -0.08566984 0.06306137 -0.05229883 -0.01737954 0.023616454 -0.039880455 0.09505855
0.026703326 0.049562126 -0.007241857 -0.014361998 -0.06998441 -0.06949565 0.05987425 -0.0024881926
-0.031670377 0.06771798 0.09963969 -0.037510324 0.057539176 0.019964837 0.11180545 0.030704536
-0.042807054 0.028132549 0.056422096 0.10455073 0.041534193 -0.08078639 -0.0600699 -0.06072474
0.07539366 0.07827274 -0.074404985 -0.041453212 0.08248744 0.02881735 0.024548989 -0.010422773
-0.027151495 -0.044416286 -0.10652329 0.09419537 0.0064185914 0.021265982 0.050217777 -0.0036996747
0.019422371 0.017319843 -0.0360472 -0.04865255 -0.0959961 -0.010616675 0.07578011 -0.020364
-0.08857831 0.0994963 -0.078077465 0.08400902 -0.0080043785 -0.09891967 0.094486855 -0.07703256
0.08289736 0.0027521786 -0.061524726 0.00068674405 0.05751543 -0.09019279 0.017893622 -0.10290186
-0.08767641 0.011147414 -0.034967855 -0.025055464 0.025619894 -0.0013520132 -0.060603064 0.009201154
-0.05164144 -0.09869048 0.08247651 -0.09412092 -0.0038502754 0.00042371752 -0.039881557 -0.023935039
-0.10084847 0.08224174 -0.085530244 -0.012750479 -0.011369351 -0.09644979 -0.095599204 -0.104422495
0.039059028 -0.01454864 -0.07650917 -0.04869135 0.080523156 -0.05056272 -0.027911335 -0.09474712
-0.053217173 -0.047474306 0.02930224 -0.052914817 -0.09700526 0.026739703 0.03530969 -0.017716544
0.043116614 0.013771184 0.09724508 -0.073558845 -0.049263798 0.0022511312 -0.05328622 -0.06891178
00000000: 60e2 3b3d 469b a4bd 6a5c 1c3d e1b9 4c3d
00000010: 05d0 01bd 3bcd 343d 853b 6bbd b60b 703d
00000020: baaf 76bd ad54 853d c2f4 babc d8f1 1b3d
00000030: 7665 c9bd 92be 113d 3b8e 7d3c c4ae 5b3d
00000040: 1d49 14bd 056b 47bc 0988 60bc 8ec2 9fbd
00000050: a565 0cbd c3e4 a63d 460e 693c 6fc2 b4bd
00000060: c7e9 a83c 3ef2 b53a d7de a5bd 4fd4 bcbd
00000070: 563a 883b 11c9 8dbd 5df2 80bd fe8c 8336
00000080: ffb6 d13d a938 2f3d 4c70 8c3d 6b98 9bbc
00000090: d42a e2bc 416f a23d 9c0b 2cbd bcbe 90bd
000000a0: 30d9 8ebd ba33 b93d 00e4 b0bd 33c1 1c3c
000000b0: 546d 8a3b f0f8 153d 32db cc3d 596b cc3c
000000c0: 68a3 02bd 1d27 7b3d 2ca6 81bd 8071 b0bc
000000d0: c315 3ebb 2bd9 14bd 35d8 b03d f42d bebc
000000e0: 247c 5dbd 4ab0 a33c 143e a93c a9e7 aabd
000000f0: de4a 4f3d a963 f4bc b0ac 4b3b af34 433d
00000100: f288 7fbd 206b aabd 4058 ccbd 33d5 75bd
00000110: 7d5a 9ebd ec19 0fbd df87 f0ba 3f88 ffbb
00000120: 21a6 0cbd 8f44 483d ffed 1e3d 8bb5 c13d
00000130: 5b86 ba3d 174e 87bc 48a3 a93d 4a3f 8a3c
00000140: 7784 083d fd2d 9bbd 7486 683c a269 12bd
00000150: 23e0 d8bc 9bfa 5c3d 77b2 e2bc 9902 81bd
00000160: 3eff 863d 9fbe 14bc c262 463d c230 dabd
00000170: fda7 aa3d b52d a13d 9780 46bd fd18 35bd
00000180: bf50 b53d 6977 d7bd 6131 79bd 8bc5 d0bd
00000190: b4ee d43c 1f9b 8a3d 351f b73b 79a0 053d
000001a0: 137f b8bd 4cf6 71bb 1543 36bd 99ea b9bd
000001b0: dff6 4c3d 4502 be3c 4715 39bd c542 5bbd
000001c0: 74ab 0a3d b418 16bd 3716 b53d 85c2 38bd
000001d0: 363f b33d 16ed fb3c 8941 89bc 83f4 9a3d
000001e0: 2e4f b03c 8e1e 943d 9b66 a3bc 38c4 c9bb
000001f0: 4a66 b5ba eaca ef3c d031 ddbb c45e d7bd
00000200: a13a ffbc 402d d2bd 0097 e2bc f6ed 023d
00000210: 4de6 0c3d 9acb 34bd d870 2cbd ba6c 243c
00000220: c441 0a3d ab73 afbd 5226 813d 4c37 56bd
00000230: 895f 8ebc 4b77 c13c b059 23bd 0fae c23d
00000240: efc0 da3c a801 4b3d 194d edbb 964e 6bbc
00000250: fd53 8fbd bc53 8ebd b43e 753d f210 23bb
00000260: ccb8 01bd b9af 8a3d e50f cc3d 6da4 19bd
00000270: 33ae 6b3d 4c8d a33c 41fa e43d 1488 fb3c
00000280: 7356 2fbd 3b76 e63c db1a 673d b11e d63d
00000290: c21f 2a3d 5673 a5bd db0b 76bd 81ba 78bd
000002a0: fe67 9a3d 754d a03d a461 98bd d8ca 29bd
000002b0: 2def a83d 5d12 ec3c f61a c93c 47c4 2abc
000002c0: d06c debc daed 35bd e228 dabd 81e9 c03d
000002d0: 0c53 d23b ff35 ae3c 28b1 4d3d 3e76 72bb
000002e0: aa1b 9f3c 58e2 8d3c 3ba6 13bd e547 47bd
000002f0: 9a99 c4bd 90f1 2dbc 9a32 9b3d 67d2 a6bc
00000300: 8c68 b5bd b7c4 cb3d 14e7 9fbd ec0c ac3d
00000310: cc24 03bc 6596 cabd 5382 c13d 3fc3 9dbd
00000320: 17c6 a93d e55d 343b 5a01 7cbd 9d06 343a
00000330: 4d95 6b3d ffb6 b8bd a595 923c 36be d2bd
00000340: b18f b3bd a5a3 363c 743a 0fbd 1e41 cdbc
00000350: d0e0 d13c 0936 b1ba eb3a 78bd 70c0 163c
00000360: f985 53bd 3c1e cabd 72e9 a83d 78c2 c0bd
00000370: e754 7cbb 6726 de39 d85a 23bd 6a13 c4bc
00000380: a589 cebd 5b6e a83d 7b2a afbd 63e7 50bc
00000390: 8446 3abc 7887 c5bd 84c9 c3bd 76db d5bd
000003a0: 5cfc 1f3d 6b5d 6ebc d7b0 9cbd 9570 47bd
000003b0: 53e9 a43d db1a 4fbd 50a6 e4bc c70a c2bd
000003c0: 40fa 59bd 6b74 42bd 400b f03c 35bd 58bd
000003d0: b2aa c6bd 390d db3c e5a0 103d 4922 91bc
000003e0: 0c9b 303d 88a0 613c 6e28 c73d 05a6 96bd
000003f0: d6c8 49bd b787 133b a742 5abd 9f21 8dbd

conv_block_2.2.bias f4 [10]
-0.060414266 0.07640281 0.030913912 0.0679545 -0.008829087 0.08572431 -0.049607296 -0.046232082
0.047711145 -0.008251642
00000000: f374 77bd 1479 9c3d 2c3f fd3c bb2b 8b3d
00000010: e0a7 10bc 3a90 af3d 0531 4bbd da5d 3dbd
00000020: c36c 433d e531 07bc

classifier.1.weight f4 [3, 1690]
0.019492432 0.00051616575 0.007750078 -0.0046515786 -0.008886857 -0.019866284 0.0073655397 0.0070640915
-0.015556878 0.009810507 -0.0033011166 -0.012513745 -0.016758904 -0.022743614 -0.013521965 0.018452711
0.024016462 -0.008081405 0.021189922 0.017001186 0.012496349 -0.013348568 -0.0014783571 -0.0088599585
0.004710119 -0.014057312 -0.012042906 0.012735913 0.018697359 -0.0052927453 -0.008252742 -0.021323511
0.006827518 0.0068945987 -0.003976139 0.0065259254 -0.0007694857 -0.02414731 -0.002319166 0.012262664
-0.020330034 0.017359525 -0.009357583 0.009880102 0.016743204 -0.016657924 0.003644652 -0.013503321
0.013321279 -0.013696149 -0.01548182 0.00019288542 0.0137236975 -0.013370938 0.011338784 -0.017046856
0.018215843 -0.012071527 0.015574556 0.012632291 -0.017701143 -0.009200728 0.018365629 0.010218333
0.012540203 0.0041448544 0.013395693 -0.009295742 0.008399686 7.150885e-05 -0.01626861 -0.0028194177
-0.015905919 -0.0052118353 0.0019248669 -0.0017017223 0.014794949 0.019534865 -0.022381714 0.013061582
-0.016997522 -0.0019386874 -0.008909933 -0.0036939976 0.016565148 -0.0012272815 0.018511243 0.012660628
-0.011620771 0.006802258 -0.0057109245 -0.003740551 -0.02373962 0.00331465 -0.0071406025 -0.023486279
-0.012262745 -0.019341486 0.018027555 0.0061096777 -0.01792549 -0.016141038 0.018302757 -0.011168447
0.007529888 -0.022433499 -0.006124452 0.020272436 -0.02309646 -0.008845291 0.0111010885 0.0068643223
0.015164009 -0.013878378 -0.012074325 -0.01188788 -0.00771185 0.0031179744 -0.0159346 0.016121201
0.0032167009 -0.00017080351 -0.019392276 0.011844233 0.0001599148 -0.022714086 -0.019205721 -0.008650515
0.019359669 0.017793177 -0.0026245895 0.019871632 0.014996943 -0.019819723 0.019273143 0.019229801
0.019455947 0.009660179 -0.011661113 -0.009779697 -0.020523062 0.018288232 0.015721679 -0.01754876
-0.02067354 -0.008375888 0.0037219054 -0.010862247 0.023194367 0.014439152 -0.021825666 0.012453844
-0.017742196 0.022815263 0.00073250756 -0.014819407 0.006491357 -0.023807388 -0.013959578 -0.004932652
-0.0073417206 -0.00033993964 -0.023861324 0.0014083909 0.0010147674 -0.008759283 0.002694692 -0.022510977
0.00722093 0.0023263781 -0.009655803 0.009466248 0.011097945 -0.021545306 0.011909549 0.011561654
-0.0045499657 -0.0013538512 -0.014229129 -0.01707138 -0.019844374 -0.022790175 -0.0015067336 -0.01330694
-0.014805951 0.004486821 0.0018580097 -0.0011939491 0.0010319606 -0.007094191 0.00808437 -0.007451733
0.004293127 -0.004163452 -0.0061550234 -0.030227726 0.015018512 -0.03256055 0.0044516614 0.0065390235
-0.0025275669 -0.020373397 -0.028381163 0.004994864 -0.0058518467 -0.028341664 0.0059355735 -0.0029874295
-0.010494642 -0.020479787 0.015162128 0.01401526 -0.008850006 -0.018855458 -0.03175885 -0.022591941
-0.027807852 -0.0017514648 -0.00075030123 -0.025083493 -0.017406741 -0.002529862 -0.00380303 0.013986247
-0.014295741 0.006136979 -0.023067212 -0.011970465 0.011852395 0.0022854889 -0.025699945 -0.02966125
0.0127402 -0.02830714 -0.0020211202 0.0016087134 -0.031091813 0.013022196 -0.012761083 -0.03232931
-0.02068495 -0.021028843 -0.0076476843 -0.00035165617 -0.023135591 -0.028154787 0.0063481014 -0.022238888
-0.024571888 -0.02280116 -0.026857015 -0.025619982 -0.021258535 -0.0008575598 0.0012301754 -0.026174536
00000000: 98ae 9f3c 4c4f 073a 5ef4 fd3b 456c 98bb
00000010: 2e9a 11bc 9ebe a2bc a05a f13b e579 e73b
00000020: 47e2 7ebc 40bc 203c 8c57 58bb 7306 4dbc
00000030: f849 89bc d150 babc 3b8b 5dbc 242a 973c
00000040: 2cbe c43c df67 04bc 7d96 ad3c 1246 8b3c
00000050: 7dbd 4c3c f4b3 5abc 6fc5 c1ba 5c29 11bc
00000060: 5857 9a3b a450 66bc 9c4f 45bc 4aaa 503c
00000070: 342b 993c c46e adbb 8236 07bc a5ae aebc
00000080: 5fb9 df3b 16ec e13b 454a 82bb 6ed7 d53b
00000090: 50b7 49ba 94d0 c5bc 26fd 17bb 57e9 483c
000000a0: 2c8b a6bc 9035 8e3c 8c50 19bc 27e0 213c
000000b0: 0b29 893c 3376 88bc 1ddb 6e3b 093d 5dbc
000000c0: 7e41 5a3c d065 60bc 76a7 7dbc 4941 4a39
000000d0: 5cd9 603c c711 5bbc 4fc6 393c d9a5 8bbc
000000e0: 6439 953c a7c7 45bc 6c2c 7f3c abf7 4e3c
000000f0: fd01 91bc a6be 16bc 8473 963c cc6a 273c
00000100: 6c75 4d3c 8fd1 873b 9c79 5b3c 2b4d 18bc
00000110: d69e 093c 06f7 9538 bf45 85bc fbc5 38bb
00000120: 214d 82bc 0bc8 aabb d14b fc3a 530c dfba
00000130: 8466 723c 9507 a03c db59 b7bc 3f00 563c
00000140: 633e 8bbc 8e1b feba f8fa 11bc ff16 72bb
00000150: a2b3 873c bcdc a0ba e4a4 973c 866e 4f3c
00000160: 0c65 3ebc 7ae5 de3b b522 bbbb 0824 75bb
00000170: 9779 c2bc 993a 593b b7fb e9bb 4c66 c0bc
00000180: aee9 48bc 0972 9ebc 86ae 933c b133 c83b
00000190: 7ad8 92bc 363a 84bc aaef 953c ddfb 36bc
000001a0: 47bd f63b 75c6 b7bc a1af c8bb 6112 a63c
000001b0: ca34 bdbc d7eb 10bc 57e1 353c 1cee e03b
000001c0: 7772 783c 2362 63bc 64d3 45bc 62c5 42bc
000001d0: b0b3 fcbb ee56 4c3b 4789 82bc 9c10 843c
000001e0: 49cf 523b b819 33b9 8ddc 9ebc 500e 423c
000001f0: cdae 2739 e412 babc 5155 9dbc e4ba 0dbc
00000200: 2b98 9e3c ffc2 913c 4e01 2cbb d5c9 a23c
00000210: bdb5 753c f95c a2bc b6e2 9d3c d187 9d3c
00000220: 1462 9f3c ba45 1e3c 410e 3fbc 063b 20bc
00000230: fb1f a8bc 34d1 953c c0ca 803c 6bc2 8fbc
00000240: 8e5b a9bc 053b 09bc 36eb 733b 91f7 31bc
00000250: 1d02 be3c 3192 6c3c bdcb b2bc 350b 4c3c
00000260: 1558 91bc 13e7 ba3c c005 403a 19cd 72bc
00000270: 73b5 d43b b607 c3bc b7b6 64bc 16a2 a1bb
00000280: d192 f0bb ed39 b2b9 d378 c3bc c299 b83a
00000290: f201 853a 1983 0fbc 6e99 303b f168 b8bc
000002a0: 8d9d ec3b 2676 183b 6033 1ebc 5218 1b3c
000002b0: 28d4 353c c87f b0bc 4520 433c 176d 3d3c
000002c0: e117 95bb b573 b1ba 4b21 69bc 47d9 8bbc
000002d0: ab90 a2bc 76b2 babc 977d c5ba 5a05 5abc
000002e0: a994 72bc 2f06 933b 7688 f33a 497e 9cba
000002f0: da42 873a 6376 e8bb 4e74 043c ab2d f4bb
00000300: 5cad 8c3b 916d 88bb 14b0 c9bb 23a0 f7bc
00000310: 3410 763c 365e 05bd 3edf 913b 4e45 d63b
00000320: 89a5 25bb 1ce6 a6bc 9d7f e8bc f5ab a33b
00000330: d9c0 bfbb c72c e8bc 337f c23b c0c8 43bb
00000340: b8f1 2bbc 3ac5 a7bc 936a 783c 43a0 653c
00000350: 9eff 10bc c376 9abc 9115 02bd bc12 b9bc
00000360: 4bcd e3bc 6891 e5ba ddaf 44ba e67b cdbc
00000370: 9598 8ebc 0bcc 25bb 413c 79bb 9226 653c
00000380: af38 6abc b618 c93b 73f7 bcbc c51f 44bc
00000390: 8c30 423c 24c8 153b b188 d2bc 26fc f2bc
000003a0: 46bc 503c 60e4 e7bc c574 04bb 77db d23a
000003b0: 42b4 febc 0c5b 553c dd13 51bc bd6b 04bd
000003c0: 7c73 a9bc ae44 acbc 6d99 fabb 7e5e b8b9
000003d0: da86 bdbc dea4 e6bc bc03 d03b 542e b6bc
000003e0: fc4a c9bc 80c9 babc 3e03 dcbc ffe0 d1bc
000003f0: 6126 aebc ddcd 60ba d63d a13a fb6b d6bc

classifier.1.bias f4 [3]
0.0066818986 -0.008570287 -0.009340026
00000000: d4f3 da3b 646a 0cbc e906 19bc
